
0 : Sequential(
  (Conv2d): Conv2d(3, 29, kernel_size=(3, 3), stride=(1, 1), padding=(1, 1), bias=False)
  (BatchNorm2d): BatchNorm2d(29, eps=0.0001, momentum=0.003, affine=True, track_running_stats=True)
  (activation): LeakyReLU(negative_slope=0.1, inplace=True)
)
1 : Sequential(
  (Conv2d): Conv2d(29, 57, kernel_size=(3, 3), stride=(2, 2), padding=(1, 1), bias=False)
  (BatchNorm2d): BatchNorm2d(57, eps=0.0001, momentum=0.003, affine=True, track_running_stats=True)
  (activation): LeakyReLU(negative_slope=0.1, inplace=True)
)
2 : Sequential(
  (Conv2d): Conv2d(57, 21, kernel_size=(1, 1), stride=(1, 1), bias=False)
  (BatchNorm2d): BatchNorm2d(21, eps=0.0001, momentum=0.003, affine=True, track_running_stats=True)
  (activation): LeakyReLU(negative_slope=0.1, inplace=True)
)
3 : Sequential(
  (Conv2d): Conv2d(21, 57, kernel_size=(3, 3), stride=(1, 1), padding=(1, 1), bias=False)
  (BatchNorm2d): BatchNorm2d(57, eps=0.0001, momentum=0.003, affine=True, track_running_stats=True)
  (activation): LeakyReLU(negative_slope=0.1, inplace=True)
)
4 : weightedFeatureFusion()
5 : Sequential(
  (Conv2d): Conv2d(57, 115, kernel_size=(3, 3), stride=(2, 2), padding=(1, 1), bias=False)
  (BatchNorm2d): BatchNorm2d(115, eps=0.0001, momentum=0.003, affine=True, track_running_stats=True)
  (activation): LeakyReLU(negative_slope=0.1, inplace=True)
)
6 : Sequential(
  (Conv2d): Conv2d(115, 19, kernel_size=(1, 1), stride=(1, 1), bias=False)
  (BatchNorm2d): BatchNorm2d(19, eps=0.0001, momentum=0.003, affine=True, track_running_stats=True)
  (activation): LeakyReLU(negative_slope=0.1, inplace=True)
)
7 : Sequential(
  (Conv2d): Conv2d(19, 115, kernel_size=(3, 3), stride=(1, 1), padding=(1, 1), bias=False)
  (BatchNorm2d): BatchNorm2d(115, eps=0.0001, momentum=0.003, affine=True, track_running_stats=True)
  (activation): LeakyReLU(negative_slope=0.1, inplace=True)
)
8 : weightedFeatureFusion()
9 : Sequential(
  (Conv2d): Conv2d(115, 47, kernel_size=(1, 1), stride=(1, 1), bias=False)
  (BatchNorm2d): BatchNorm2d(47, eps=0.0001, momentum=0.003, affine=True, track_running_stats=True)
  (activation): LeakyReLU(negative_slope=0.1, inplace=True)
)
10 : Sequential(
  (Conv2d): Conv2d(47, 115, kernel_size=(3, 3), stride=(1, 1), padding=(1, 1), bias=False)
  (BatchNorm2d): BatchNorm2d(115, eps=0.0001, momentum=0.003, affine=True, track_running_stats=True)
  (activation): LeakyReLU(negative_slope=0.1, inplace=True)
)
11 : weightedFeatureFusion()
12 : Sequential(
  (Conv2d): Conv2d(115, 255, kernel_size=(3, 3), stride=(2, 2), padding=(1, 1), bias=False)
  (BatchNorm2d): BatchNorm2d(255, eps=0.0001, momentum=0.003, affine=True, track_running_stats=True)
  (activation): LeakyReLU(negative_slope=0.1, inplace=True)
)
13 : Sequential(
  (Conv2d): Conv2d(255, 66, kernel_size=(1, 1), stride=(1, 1), bias=False)
  (BatchNorm2d): BatchNorm2d(66, eps=0.0001, momentum=0.003, affine=True, track_running_stats=True)
  (activation): LeakyReLU(negative_slope=0.1, inplace=True)
)
14 : Sequential(
  (Conv2d): Conv2d(66, 255, kernel_size=(3, 3), stride=(1, 1), padding=(1, 1), bias=False)
  (BatchNorm2d): BatchNorm2d(255, eps=0.0001, momentum=0.003, affine=True, track_running_stats=True)
  (activation): LeakyReLU(negative_slope=0.1, inplace=True)
)
15 : weightedFeatureFusion()
16 : Sequential(
  (Conv2d): Conv2d(255, 110, kernel_size=(1, 1), stride=(1, 1), bias=False)
  (BatchNorm2d): BatchNorm2d(110, eps=0.0001, momentum=0.003, affine=True, track_running_stats=True)
  (activation): LeakyReLU(negative_slope=0.1, inplace=True)
)
17 : Sequential(
  (Conv2d): Conv2d(110, 255, kernel_size=(3, 3), stride=(1, 1), padding=(1, 1), bias=False)
  (BatchNorm2d): BatchNorm2d(255, eps=0.0001, momentum=0.003, affine=True, track_running_stats=True)
  (activation): LeakyReLU(negative_slope=0.1, inplace=True)
)
18 : weightedFeatureFusion()
19 : Sequential(
  (Conv2d): Conv2d(255, 104, kernel_size=(1, 1), stride=(1, 1), bias=False)
  (BatchNorm2d): BatchNorm2d(104, eps=0.0001, momentum=0.003, affine=True, track_running_stats=True)
  (activation): LeakyReLU(negative_slope=0.1, inplace=True)
)
20 : Sequential(
  (Conv2d): Conv2d(104, 255, kernel_size=(3, 3), stride=(1, 1), padding=(1, 1), bias=False)
  (BatchNorm2d): BatchNorm2d(255, eps=0.0001, momentum=0.003, affine=True, track_running_stats=True)
  (activation): LeakyReLU(negative_slope=0.1, inplace=True)
)
21 : weightedFeatureFusion()
22 : Sequential(
  (Conv2d): Conv2d(255, 123, kernel_size=(1, 1), stride=(1, 1), bias=False)
  (BatchNorm2d): BatchNorm2d(123, eps=0.0001, momentum=0.003, affine=True, track_running_stats=True)
  (activation): LeakyReLU(negative_slope=0.1, inplace=True)
)
23 : Sequential(
  (Conv2d): Conv2d(123, 255, kernel_size=(3, 3), stride=(1, 1), padding=(1, 1), bias=False)
  (BatchNorm2d): BatchNorm2d(255, eps=0.0001, momentum=0.003, affine=True, track_running_stats=True)
  (activation): LeakyReLU(negative_slope=0.1, inplace=True)
)
24 : weightedFeatureFusion()
25 : Sequential(
  (Conv2d): Conv2d(255, 121, kernel_size=(1, 1), stride=(1, 1), bias=False)
  (BatchNorm2d): BatchNorm2d(121, eps=0.0001, momentum=0.003, affine=True, track_running_stats=True)
  (activation): LeakyReLU(negative_slope=0.1, inplace=True)
)
26 : Sequential(
  (Conv2d): Conv2d(121, 255, kernel_size=(3, 3), stride=(1, 1), padding=(1, 1), bias=False)
  (BatchNorm2d): BatchNorm2d(255, eps=0.0001, momentum=0.003, affine=True, track_running_stats=True)
  (activation): LeakyReLU(negative_slope=0.1, inplace=True)
)
27 : weightedFeatureFusion()
28 : Sequential(
  (Conv2d): Conv2d(255, 122, kernel_size=(1, 1), stride=(1, 1), bias=False)
  (BatchNorm2d): BatchNorm2d(122, eps=0.0001, momentum=0.003, affine=True, track_running_stats=True)
  (activation): LeakyReLU(negative_slope=0.1, inplace=True)
)
29 : Sequential(
  (Conv2d): Conv2d(122, 255, kernel_size=(3, 3), stride=(1, 1), padding=(1, 1), bias=False)
  (BatchNorm2d): BatchNorm2d(255, eps=0.0001, momentum=0.003, affine=True, track_running_stats=True)
  (activation): LeakyReLU(negative_slope=0.1, inplace=True)
)
30 : weightedFeatureFusion()
31 : Sequential(
  (Conv2d): Conv2d(255, 107, kernel_size=(1, 1), stride=(1, 1), bias=False)
  (BatchNorm2d): BatchNorm2d(107, eps=0.0001, momentum=0.003, affine=True, track_running_stats=True)
  (activation): LeakyReLU(negative_slope=0.1, inplace=True)
)
32 : Sequential(
  (Conv2d): Conv2d(107, 255, kernel_size=(3, 3), stride=(1, 1), padding=(1, 1), bias=False)
  (BatchNorm2d): BatchNorm2d(255, eps=0.0001, momentum=0.003, affine=True, track_running_stats=True)
  (activation): LeakyReLU(negative_slope=0.1, inplace=True)
)
33 : weightedFeatureFusion()
34 : Sequential(
  (Conv2d): Conv2d(255, 122, kernel_size=(1, 1), stride=(1, 1), bias=False)
  (BatchNorm2d): BatchNorm2d(122, eps=0.0001, momentum=0.003, affine=True, track_running_stats=True)
  (activation): LeakyReLU(negative_slope=0.1, inplace=True)
)
35 : Sequential(
  (Conv2d): Conv2d(122, 255, kernel_size=(3, 3), stride=(1, 1), padding=(1, 1), bias=False)
  (BatchNorm2d): BatchNorm2d(255, eps=0.0001, momentum=0.003, affine=True, track_running_stats=True)
  (activation): LeakyReLU(negative_slope=0.1, inplace=True)
)
36 : weightedFeatureFusion()
37 : Sequential(
  (Conv2d): Conv2d(255, 512, kernel_size=(3, 3), stride=(2, 2), padding=(1, 1), bias=False)
  (BatchNorm2d): BatchNorm2d(512, eps=0.0001, momentum=0.003, affine=True, track_running_stats=True)
  (activation): LeakyReLU(negative_slope=0.1, inplace=True)
)
38 : Sequential(
  (Conv2d): Conv2d(512, 256, kernel_size=(1, 1), stride=(1, 1), bias=False)
  (BatchNorm2d): BatchNorm2d(256, eps=0.0001, momentum=0.003, affine=True, track_running_stats=True)
  (activation): LeakyReLU(negative_slope=0.1, inplace=True)
)
39 : Sequential(
  (Conv2d): Conv2d(256, 512, kernel_size=(3, 3), stride=(1, 1), padding=(1, 1), bias=False)
  (BatchNorm2d): BatchNorm2d(512, eps=0.0001, momentum=0.003, affine=True, track_running_stats=True)
  (activation): LeakyReLU(negative_slope=0.1, inplace=True)
)
40 : weightedFeatureFusion()
41 : Sequential(
  (Conv2d): Conv2d(512, 253, kernel_size=(1, 1), stride=(1, 1), bias=False)
  (BatchNorm2d): BatchNorm2d(253, eps=0.0001, momentum=0.003, affine=True, track_running_stats=True)
  (activation): LeakyReLU(negative_slope=0.1, inplace=True)
)
42 : Sequential(
  (Conv2d): Conv2d(253, 512, kernel_size=(3, 3), stride=(1, 1), padding=(1, 1), bias=False)
  (BatchNorm2d): BatchNorm2d(512, eps=0.0001, momentum=0.003, affine=True, track_running_stats=True)
  (activation): LeakyReLU(negative_slope=0.1, inplace=True)
)
43 : weightedFeatureFusion()
44 : Sequential(
  (Conv2d): Conv2d(512, 225, kernel_size=(1, 1), stride=(1, 1), bias=False)
  (BatchNorm2d): BatchNorm2d(225, eps=0.0001, momentum=0.003, affine=True, track_running_stats=True)
  (activation): LeakyReLU(negative_slope=0.1, inplace=True)
)
45 : Sequential(
  (Conv2d): Conv2d(225, 512, kernel_size=(3, 3), stride=(1, 1), padding=(1, 1), bias=False)
  (BatchNorm2d): BatchNorm2d(512, eps=0.0001, momentum=0.003, affine=True, track_running_stats=True)
  (activation): LeakyReLU(negative_slope=0.1, inplace=True)
)
46 : weightedFeatureFusion()
47 : Sequential(
  (Conv2d): Conv2d(512, 231, kernel_size=(1, 1), stride=(1, 1), bias=False)
  (BatchNorm2d): BatchNorm2d(231, eps=0.0001, momentum=0.003, affine=True, track_running_stats=True)
  (activation): LeakyReLU(negative_slope=0.1, inplace=True)
)
48 : Sequential(
  (Conv2d): Conv2d(231, 512, kernel_size=(3, 3), stride=(1, 1), padding=(1, 1), bias=False)
  (BatchNorm2d): BatchNorm2d(512, eps=0.0001, momentum=0.003, affine=True, track_running_stats=True)
  (activation): LeakyReLU(negative_slope=0.1, inplace=True)
)
49 : weightedFeatureFusion()
50 : Sequential(
  (Conv2d): Conv2d(512, 239, kernel_size=(1, 1), stride=(1, 1), bias=False)
  (BatchNorm2d): BatchNorm2d(239, eps=0.0001, momentum=0.003, affine=True, track_running_stats=True)
  (activation): LeakyReLU(negative_slope=0.1, inplace=True)
)
51 : Sequential(
  (Conv2d): Conv2d(239, 512, kernel_size=(3, 3), stride=(1, 1), padding=(1, 1), bias=False)
  (BatchNorm2d): BatchNorm2d(512, eps=0.0001, momentum=0.003, affine=True, track_running_stats=True)
  (activation): LeakyReLU(negative_slope=0.1, inplace=True)
)
52 : weightedFeatureFusion()
53 : Sequential(
  (Conv2d): Conv2d(512, 201, kernel_size=(1, 1), stride=(1, 1), bias=False)
  (BatchNorm2d): BatchNorm2d(201, eps=0.0001, momentum=0.003, affine=True, track_running_stats=True)
  (activation): LeakyReLU(negative_slope=0.1, inplace=True)
)
54 : Sequential(
  (Conv2d): Conv2d(201, 512, kernel_size=(3, 3), stride=(1, 1), padding=(1, 1), bias=False)
  (BatchNorm2d): BatchNorm2d(512, eps=0.0001, momentum=0.003, affine=True, track_running_stats=True)
  (activation): LeakyReLU(negative_slope=0.1, inplace=True)
)
55 : weightedFeatureFusion()
56 : Sequential(
  (Conv2d): Conv2d(512, 255, kernel_size=(1, 1), stride=(1, 1), bias=False)
  (BatchNorm2d): BatchNorm2d(255, eps=0.0001, momentum=0.003, affine=True, track_running_stats=True)
  (activation): LeakyReLU(negative_slope=0.1, inplace=True)
)
57 : Sequential(
  (Conv2d): Conv2d(255, 512, kernel_size=(3, 3), stride=(1, 1), padding=(1, 1), bias=False)
  (BatchNorm2d): BatchNorm2d(512, eps=0.0001, momentum=0.003, affine=True, track_running_stats=True)
  (activation): LeakyReLU(negative_slope=0.1, inplace=True)
)
58 : weightedFeatureFusion()
59 : Sequential(
  (Conv2d): Conv2d(512, 248, kernel_size=(1, 1), stride=(1, 1), bias=False)
  (BatchNorm2d): BatchNorm2d(248, eps=0.0001, momentum=0.003, affine=True, track_running_stats=True)
  (activation): LeakyReLU(negative_slope=0.1, inplace=True)
)
60 : Sequential(
  (Conv2d): Conv2d(248, 512, kernel_size=(3, 3), stride=(1, 1), padding=(1, 1), bias=False)
  (BatchNorm2d): BatchNorm2d(512, eps=0.0001, momentum=0.003, affine=True, track_running_stats=True)
  (activation): LeakyReLU(negative_slope=0.1, inplace=True)
)
61 : weightedFeatureFusion()
62 : Sequential(
  (Conv2d): Conv2d(512, 1024, kernel_size=(3, 3), stride=(2, 2), padding=(1, 1), bias=False)
  (BatchNorm2d): BatchNorm2d(1024, eps=0.0001, momentum=0.003, affine=True, track_running_stats=True)
  (activation): LeakyReLU(negative_slope=0.1, inplace=True)
)
63 : Sequential(
  (Conv2d): Conv2d(1024, 460, kernel_size=(1, 1), stride=(1, 1), bias=False)
  (BatchNorm2d): BatchNorm2d(460, eps=0.0001, momentum=0.003, affine=True, track_running_stats=True)
  (activation): LeakyReLU(negative_slope=0.1, inplace=True)
)
64 : Sequential(
  (Conv2d): Conv2d(460, 1024, kernel_size=(3, 3), stride=(1, 1), padding=(1, 1), bias=False)
  (BatchNorm2d): BatchNorm2d(1024, eps=0.0001, momentum=0.003, affine=True, track_running_stats=True)
  (activation): LeakyReLU(negative_slope=0.1, inplace=True)
)
65 : weightedFeatureFusion()
66 : Sequential(
  (Conv2d): Conv2d(1024, 413, kernel_size=(1, 1), stride=(1, 1), bias=False)
  (BatchNorm2d): BatchNorm2d(413, eps=0.0001, momentum=0.003, affine=True, track_running_stats=True)
  (activation): LeakyReLU(negative_slope=0.1, inplace=True)
)
67 : Sequential(
  (Conv2d): Conv2d(413, 1024, kernel_size=(3, 3), stride=(1, 1), padding=(1, 1), bias=False)
  (BatchNorm2d): BatchNorm2d(1024, eps=0.0001, momentum=0.003, affine=True, track_running_stats=True)
  (activation): LeakyReLU(negative_slope=0.1, inplace=True)
)
68 : weightedFeatureFusion()
69 : Sequential(
  (Conv2d): Conv2d(1024, 471, kernel_size=(1, 1), stride=(1, 1), bias=False)
  (BatchNorm2d): BatchNorm2d(471, eps=0.0001, momentum=0.003, affine=True, track_running_stats=True)
  (activation): LeakyReLU(negative_slope=0.1, inplace=True)
)
70 : Sequential(
  (Conv2d): Conv2d(471, 1024, kernel_size=(3, 3), stride=(1, 1), padding=(1, 1), bias=False)
  (BatchNorm2d): BatchNorm2d(1024, eps=0.0001, momentum=0.003, affine=True, track_running_stats=True)
  (activation): LeakyReLU(negative_slope=0.1, inplace=True)
)
71 : weightedFeatureFusion()
72 : Sequential(
  (Conv2d): Conv2d(1024, 424, kernel_size=(1, 1), stride=(1, 1), bias=False)
  (BatchNorm2d): BatchNorm2d(424, eps=0.0001, momentum=0.003, affine=True, track_running_stats=True)
  (activation): LeakyReLU(negative_slope=0.1, inplace=True)
)
73 : Sequential(
  (Conv2d): Conv2d(424, 1024, kernel_size=(3, 3), stride=(1, 1), padding=(1, 1), bias=False)
  (BatchNorm2d): BatchNorm2d(1024, eps=0.0001, momentum=0.003, affine=True, track_running_stats=True)
  (activation): LeakyReLU(negative_slope=0.1, inplace=True)
)
74 : weightedFeatureFusion()
75 : Sequential(
  (Conv2d): Conv2d(1024, 512, kernel_size=(1, 1), stride=(1, 1), bias=False)
  (BatchNorm2d): BatchNorm2d(512, eps=0.0001, momentum=0.003, affine=True, track_running_stats=True)
  (activation): LeakyReLU(negative_slope=0.1, inplace=True)
)
76 : Sequential(
  (Conv2d): Conv2d(512, 1024, kernel_size=(3, 3), stride=(1, 1), padding=(1, 1), bias=False)
  (BatchNorm2d): BatchNorm2d(1024, eps=0.0001, momentum=0.003, affine=True, track_running_stats=True)
  (activation): LeakyReLU(negative_slope=0.1, inplace=True)
)
77 : Sequential(
  (Conv2d): Conv2d(1024, 512, kernel_size=(1, 1), stride=(1, 1), bias=False)
  (BatchNorm2d): BatchNorm2d(512, eps=0.0001, momentum=0.003, affine=True, track_running_stats=True)
  (activation): LeakyReLU(negative_slope=0.1, inplace=True)
)
78 : MaxPool2d(kernel_size=5, stride=1, padding=2, dilation=1, ceil_mode=False)
79 : Sequential()
80 : MaxPool2d(kernel_size=9, stride=1, padding=4, dilation=1, ceil_mode=False)
81 : Sequential()
82 : MaxPool2d(kernel_size=13, stride=1, padding=6, dilation=1, ceil_mode=False)
83 : Sequential()
84 : Sequential(
  (Conv2d): Conv2d(2048, 482, kernel_size=(1, 1), stride=(1, 1), bias=False)
  (BatchNorm2d): BatchNorm2d(482, eps=0.0001, momentum=0.003, affine=True, track_running_stats=True)
  (activation): LeakyReLU(negative_slope=0.1, inplace=True)
)
85 : Sequential(
  (Conv2d): Conv2d(482, 1024, kernel_size=(3, 3), stride=(1, 1), padding=(1, 1), bias=False)
  (BatchNorm2d): BatchNorm2d(1024, eps=0.0001, momentum=0.003, affine=True, track_running_stats=True)
  (activation): LeakyReLU(negative_slope=0.1, inplace=True)
)
86 : Sequential(
  (Conv2d): Conv2d(1024, 494, kernel_size=(1, 1), stride=(1, 1), bias=False)
  (BatchNorm2d): BatchNorm2d(494, eps=0.0001, momentum=0.003, affine=True, track_running_stats=True)
  (activation): LeakyReLU(negative_slope=0.1, inplace=True)
)
87 : Sequential(
  (Conv2d): Conv2d(494, 666, kernel_size=(3, 3), stride=(1, 1), padding=(1, 1), bias=False)
  (BatchNorm2d): BatchNorm2d(666, eps=0.0001, momentum=0.003, affine=True, track_running_stats=True)
  (activation): LeakyReLU(negative_slope=0.1, inplace=True)
)
88 : Sequential(
  (Conv2d): Conv2d(666, 30, kernel_size=(1, 1), stride=(1, 1))
)
89 : YOLOLayer()
90 : Sequential()
91 : Sequential(
  (Conv2d): Conv2d(494, 256, kernel_size=(1, 1), stride=(1, 1), bias=False)
  (BatchNorm2d): BatchNorm2d(256, eps=0.0001, momentum=0.003, affine=True, track_running_stats=True)
  (activation): LeakyReLU(negative_slope=0.1, inplace=True)
)
92 : Upsample(scale_factor=2.0, mode=nearest)
93 : Sequential()
94 : Sequential(
  (Conv2d): Conv2d(768, 195, kernel_size=(1, 1), stride=(1, 1), bias=False)
  (BatchNorm2d): BatchNorm2d(195, eps=0.0001, momentum=0.003, affine=True, track_running_stats=True)
  (activation): LeakyReLU(negative_slope=0.1, inplace=True)
)
95 : Sequential(
  (Conv2d): Conv2d(195, 505, kernel_size=(3, 3), stride=(1, 1), padding=(1, 1), bias=False)
  (BatchNorm2d): BatchNorm2d(505, eps=0.0001, momentum=0.003, affine=True, track_running_stats=True)
  (activation): LeakyReLU(negative_slope=0.1, inplace=True)
)
96 : MaxPool2d(kernel_size=5, stride=1, padding=2, dilation=1, ceil_mode=False)
97 : Sequential()
98 : MaxPool2d(kernel_size=9, stride=1, padding=4, dilation=1, ceil_mode=False)
99 : Sequential()
100 : MaxPool2d(kernel_size=13, stride=1, padding=6, dilation=1, ceil_mode=False)
101 : Sequential()
102 : Sequential(
  (Conv2d): Conv2d(2020, 249, kernel_size=(1, 1), stride=(1, 1), bias=False)
  (BatchNorm2d): BatchNorm2d(249, eps=0.0001, momentum=0.003, affine=True, track_running_stats=True)
  (activation): LeakyReLU(negative_slope=0.1, inplace=True)
)
103 : Sequential(
  (Conv2d): Conv2d(249, 512, kernel_size=(3, 3), stride=(1, 1), padding=(1, 1), bias=False)
  (BatchNorm2d): BatchNorm2d(512, eps=0.0001, momentum=0.003, affine=True, track_running_stats=True)
  (activation): LeakyReLU(negative_slope=0.1, inplace=True)
)
104 : Sequential(
  (Conv2d): Conv2d(512, 256, kernel_size=(1, 1), stride=(1, 1), bias=False)
  (BatchNorm2d): BatchNorm2d(256, eps=0.0001, momentum=0.003, affine=True, track_running_stats=True)
  (activation): LeakyReLU(negative_slope=0.1, inplace=True)
)
105 : Sequential(
  (Conv2d): Conv2d(256, 512, kernel_size=(3, 3), stride=(1, 1), padding=(1, 1), bias=False)
  (BatchNorm2d): BatchNorm2d(512, eps=0.0001, momentum=0.003, affine=True, track_running_stats=True)
  (activation): LeakyReLU(negative_slope=0.1, inplace=True)
)
106 : Sequential(
  (Conv2d): Conv2d(512, 30, kernel_size=(1, 1), stride=(1, 1))
)
107 : YOLOLayer()
108 : Sequential()
109 : Sequential(
  (Conv2d): Conv2d(256, 128, kernel_size=(1, 1), stride=(1, 1), bias=False)
  (BatchNorm2d): BatchNorm2d(128, eps=0.0001, momentum=0.003, affine=True, track_running_stats=True)
  (activation): LeakyReLU(negative_slope=0.1, inplace=True)
)
110 : Upsample(scale_factor=2.0, mode=nearest)
111 : Sequential()
112 : Sequential(
  (Conv2d): Conv2d(383, 102, kernel_size=(1, 1), stride=(1, 1), bias=False)
  (BatchNorm2d): BatchNorm2d(102, eps=0.0001, momentum=0.003, affine=True, track_running_stats=True)
  (activation): LeakyReLU(negative_slope=0.1, inplace=True)
)
113 : Sequential(
  (Conv2d): Conv2d(102, 256, kernel_size=(3, 3), stride=(1, 1), padding=(1, 1), bias=False)
  (BatchNorm2d): BatchNorm2d(256, eps=0.0001, momentum=0.003, affine=True, track_running_stats=True)
  (activation): LeakyReLU(negative_slope=0.1, inplace=True)
)
114 : Sequential(
  (Conv2d): Conv2d(256, 122, kernel_size=(1, 1), stride=(1, 1), bias=False)
  (BatchNorm2d): BatchNorm2d(122, eps=0.0001, momentum=0.003, affine=True, track_running_stats=True)
  (activation): LeakyReLU(negative_slope=0.1, inplace=True)
)
115 : MaxPool2d(kernel_size=5, stride=1, padding=2, dilation=1, ceil_mode=False)
116 : Sequential()
117 : MaxPool2d(kernel_size=9, stride=1, padding=4, dilation=1, ceil_mode=False)
118 : Sequential()
119 : MaxPool2d(kernel_size=13, stride=1, padding=6, dilation=1, ceil_mode=False)
120 : Sequential()
121 : Sequential(
  (Conv2d): Conv2d(488, 256, kernel_size=(3, 3), stride=(1, 1), padding=(1, 1), bias=False)
  (BatchNorm2d): BatchNorm2d(256, eps=0.0001, momentum=0.003, affine=True, track_running_stats=True)
  (activation): LeakyReLU(negative_slope=0.1, inplace=True)
)
122 : Sequential(
  (Conv2d): Conv2d(256, 127, kernel_size=(1, 1), stride=(1, 1), bias=False)
  (BatchNorm2d): BatchNorm2d(127, eps=0.0001, momentum=0.003, affine=True, track_running_stats=True)
  (activation): LeakyReLU(negative_slope=0.1, inplace=True)
)
123 : Sequential(
  (Conv2d): Conv2d(127, 256, kernel_size=(3, 3), stride=(1, 1), padding=(1, 1), bias=False)
  (BatchNorm2d): BatchNorm2d(256, eps=0.0001, momentum=0.003, affine=True, track_running_stats=True)
  (activation): LeakyReLU(negative_slope=0.1, inplace=True)
)
124 : Sequential(
  (Conv2d): Conv2d(256, 30, kernel_size=(1, 1), stride=(1, 1))
)
125 : YOLOLayer()